…
          "base_uri": "https://localhost:8080/"
        },
        "id": "rvZhrmvwo7r2",
        "outputId": "3ba29477-81af-48af-dd64-a7fdd5513b3e"
      },
      "execution_count": 29,
      "outputs": [
        {
          "output_type": "stream",
          "name": "stdout",
          "text": [
            "Model: \"sequential_9\"\n",
            "_________________________________________________________________\n",
            " Layer (type)                Output Shape              Param #   \n",
            "=================================================================\n",
            " inputlayer (Flatten)        (None, 784)               0         \n",
            "                                                                 \n",
            " dense_8 (Dense)             (None, 64)                50240     \n",
            "                                                                 \n",
            " dropout_5 (Dropout)         (None, 64)                0         \n",
            "                                                                 \n",
            " dense_9 (Dense)             (None, 32)                2080      \n",
            "                                                                 \n",
            " dropout_6 (Dropout)         (None, 32)                0         \n",
            "                                                                 \n",
            " dense_10 (Dense)            (None, 16)                528       \n",
            "                                                                 \n",
            " dropout_7 (Dropout)         (None, 16)                0         \n",
            "                                                                 \n",
            " dense_11 (Dense)            (None, 10)                170       \n",
            "                                                                 \n",
            "=================================================================\n",
            "Total params: 53,018\n",
            "Trainable params: 53,018\n",
            "Non-trainable params: 0\n",
            "_________________________________________________________________\n"
          ]
        }
…
